latency/fasterseg/arch_0.pt (torch_old, 2879 bytes, 8 tensors)

beta_0_2 f4 [13, 2]
0	0x3a5e82be	0.000848811
1	0x3a96e402	0.0011512043
2	0xbd71c5a2	-0.059026368
3	0x3d79f6ec	0.0610265
4	0xbde95ec4	-0.11395028
5	0x3ded7754	0.11595026
6	0xbe0ba9f8	-0.13639057
7	0x3e0db640	0.13839054
8	0xbe07cf20	-0.13262606
9	0x3e09db64	0.13462597
10	0xbd5b2031	-0.053497497
11	0x3d635168	0.055497557
12	0xbda3594d	-0.07976017
13	0x3da771d7	0.0817601
14	0xbcef7b50	-0.029233605
15	0x3cffdda0	0.031233609
16	0xbd28e061	-0.04122961
17	0x3d311184	0.043229595
18	0xbca1a6da	-0.019732881
19	0x3cb2092a	0.021732885
20	0xbc56d657	-0.013112626
21	0x3c779af8	0.015112631
22	0x3cb38e68	0.02191849
23	0xbca32c0d	-0.019918466
24	0x3b72982b	0.0037016969
25	0xbadf0a41	-0.0017016606

alpha_0_1 f4 [15, 5]
0	0x3d3d2d6f	0.046185907
1	0x3c81f56e	0.0158641
2	0xbc2e4e4f	-0.010638787
3	0xbd01a0dd	-0.03164755
4	0xbc9bddee	-0.019026723
5	0xbb888bc5	-0.0041670525
6	0xbd2e3b56	-0.042537056
7	0x3d854a2f	0.0650829
8	0x3d44c177	0.048036065
9	0xbd64685d	-0.05576359
10	0x3c6798ba	0.014135534
11	0xbbcebeac	-0.006309351
12	0x3d1f8b3d	0.038951147
13	0xbccf1fea	-0.025283772
14	0xbcdc940d	-0.026926065
15	0x3d6b9577	0.057515588
16	0xbc154e21	-0.009112866
17	0x3d1ef66a	0.038809218
18	0xbd9aad7e	-0.07552622
19	0xb9c9a081	-0.00038457292
20	0xbb4a52ef	-0.0030872186
21	0xbd1c0122	-0.038087018
22	0xbdacd83d	-0.08439682
23	0x3db74c36	0.08950083
24	0x3cdc7384	0.02691055
25	0xbd2b04b6	-0.04175254
26	0xbd3df485	-0.04637577
27	0x3b817443	0.003950627
28	0x3d26e903	0.04074956
29	0x3d291ceb	0.041287344
30	0xbd52aa66	-0.051432036
31	0xbcd95cde	-0.02653354
32	0x3dbca25c	0.09210655
33	0xbd807bc6	-0.06273608
34	0x3d47fd2e	0.048825435
35	0xbd3585ed	-0.044317175
36	0xbce05f44	-0.027389176
37	0xbc975e5d	-0.018477613
38	0x3cb8e065	0.022567937
39	0x3d69ad25	0.05704989
40	0xbb775a6b	-0.0037743102
41	0xbdf6d892	-0.12053026
42	0x3cbf91d1	0.02338496
43	0xbca831e5	-0.020531604
44	0x3db95dcb	0.09051093
45	0xbd85d53a	-0.0653481
46	0xbd314cbb	-0.043286067
47	0xbca0dc79	-0.01963638
48	0xbd0a045a	-0.033695556
49	0x3dd40173	0.10351839
50	0xbdf6ee07	-0.12057119
51	0xbda3b63f	-0.07993745
52	0xbd8eb6f9	-0.06968493
53	0x3d9c9098	0.076447666
54	0x3de36a7f	0.11104297
55	0xbdbf2160	-0.09332538
56	0xbe259044	-0.16168314
57	0xbddbabb8	-0.10726112
58	0x3d259753	0.040427517
59	0x3e2fb23f	0.17157839
60	0xbdc65bc4	-0.09685472
61	0xbe48c637	-0.19606863
62	0xbdf39d78	-0.11895269
63	0x3d90dc3a	0.07073255
64	0x3e452310	0.19251657
65	0xbe1c4151	-0.15259291
66	0xbe5a7f90	-0.21337724
67	0xbd838de0	-0.06423545
68	0x3d399dd9	0.04531655
69	0x3e5f95de	0.21834514
70	0xbd62a1d8	-0.055330127
71	0xbe43c616	-0.19118533
72	0xbe380ebc	-0.1797437
73	0x3dfdce70	0.123928905
74	0x3e0cc111	0.13745524

alpha_0_2 f4 [14, 5]
0	0xbcbe1535	-0.023203472
1	0x3d0a1bc9	0.033717904
2	0xb918b3ae	-0.00014562786
3	0x3ccf46e9	0.025302367
4	0xbd0d1d33	-0.034451675
5	0xbc6650af	-0.014057322
6	0xbce7f647	-0.028315676
7	0x3d40fe70	0.04711765
8	0x3d7b8707	0.06140807
9	0xbd2b1fb0	-0.041778266
10	0xbb99a8b8	-0.0046893023
11	0x3d4cffe9	0.050048742
12	0x3c3a4e97	0.011371276
13	0xbcfa1d6e	-0.030531611
14	0xbb8c7388	-0.0042862333
15	0x3d07e0be	0.033173315
16	0xbb5de0ec	-0.0033855988
17	0x3d3d8020	0.046264768
18	0xbd9c8448	-0.07642418
19	0x3c94ff50	0.018188149
20	0xbd132687	-0.035925414
21	0xbcd89fe7	-0.026443435
22	0x3d7e4aa7	0.062082913
23	0xbc252a32	-0.010080861
24	0x3b8438d2	0.004035094
25	0x3d0003bf	0.031253573
26	0x3d5130ce	0.051071934
27	0xbd98daaf	-0.074635856
28	0xbd529d44	-0.05141951
29	0x3d6d59ef	0.057947095
30	0x3db0bc68	0.08629686
31	0xbc687f67	-0.014190531
32	0x3bb7a83c	0.005604772
33	0xbc81819a	-0.01580887
34	0xbd93e794	-0.072219044
35	0x3d0d1e1c	0.034452543
36	0x3bd6f1c0	0.0065595806
37	0xbc5f2eb9	-0.013621979
38	0xbcaadecb	-0.02085819
39	0xbba5d71c	-0.0050610434
40	0xbc3e1a8a	-0.011603007
41	0xbd331846	-0.04372432
42	0xbd16718b	-0.036729377
43	0x3d08b1c0	0.03337264
44	0x3d4f3ac1	0.05059314
45	0x3b584265	0.0032998559
46	0x3d21607d	0.03939866
47	0x3bddddb0	0.006770812
48	0xbd7f7449	-0.062366758
49	0x3cbae0ea	0.022812326
50	0x3c9f1c46	0.019422662
51	0xbcbe126d	-0.023202145
52	0x3d35b7a3	0.044364583
53	0xbd95bc2e	-0.07311283
54	0x3ccb4796	0.024814408
55	0xbd1eb97c	-0.03875111
56	0xbd858373	-0.065192126
57	0x3d0a6c36	0.033794604
58	0x3d89b596	0.06724088
59	0x3b8a7c3b	0.004226235
60	0xbd210947	-0.03931549
61	0xbdfaf906	-0.12254529
62	0xbd5c2726	-0.053748272
63	0x3da03f8e	0.07824622
64	0x3d86c23d	0.06580017
65	0xbdd3893c	-0.1032891
66	0xbdfad988	-0.12248522
67	0xbd3d0a94	-0.046152666
68	0x3ddb2cb9	0.107018895
69	0x3d9b84ac	0.075936645

ratio_0_0 f4 [15, 1]
0	0x3a83126f	0.001
1	0x3a83126f	0.001
2	0x3a83126f	0.001
3	0x3a83126f	0.001
4	0x3a83126f	0.001
5	0x3a83126f	0.001
6	0x3a83126f	0.001
7	0x3a83126f	0.001
8	0x3a83126f	0.001
9	0x3a83126f	0.001
10	0x3a83126f	0.001
11	0x3a83126f	0.001
12	0x3a83126f	0.001
13	0x3a83126f	0.001
14	0x3a83126f	0.001

ratio_0_2 f4 [14, 1]
0	0x3a83126f	0.001
1	0x3a83126f	0.001
2	0x3a83126f	0.001
3	0x3a83126f	0.001
4	0x3a83126f	0.001
5	0x3a83126f	0.001
6	0x3a83126f	0.001
7	0x3a83126f	0.001
8	0x3a83126f	0.001
9	0x3a83126f	0.001
10	0x3a83126f	0.001
11	0x3a83126f	0.001
12	0x3a83126f	0.001
13	0x3a83126f	0.001

ratio_0_1 f4 [15, 1]
0	0x3a83126f	0.001
1	0x3a83126f	0.001
2	0x3a83126f	0.001
3	0x3a83126f	0.001
4	0x3a83126f	0.001
5	0x3a83126f	0.001
6	0x3a83126f	0.001
7	0x3a83126f	0.001
8	0x3a83126f	0.001
9	0x3a83126f	0.001
10	0x3a83126f	0.001
11	0x3a83126f	0.001
12	0x3a83126f	0.001
13	0x3a83126f	0.001
14	0x3a83126f	0.001

alpha_0_0 f4 [16, 5]
0	0xbd1d774b	-0.038443845
1	0xbd63ef0d	-0.0556479
2	0x3dbf4d1b	0.093408786
3	0x3ac7d5bb	0.0015246192
4	0x3ce736f1	0.02822444
5	0x3cbac4df	0.022798954
6	0xbd9cebab	-0.076621376
7	0xbd34c186	-0.04412987
8	0xbcb2253b	-0.021746268
9	0x3d8a858c	0.06763753
10	0x3d63e4da	0.05563817
11	0xbd981103	-0.0742512
12	0xbe0d0a81	-0.13773538
13	0xb9bcc68a	-0.00036006077
14	0x3db5d4d7	0.088784866
15	0x3d372900	0.044716835
16	0xbe15724f	-0.14594387
17	0xbd93d18b	-0.072177015
18	0xbd6064c4	-0.054783598
19	0x3dc6e97d	0.09712503
20	0x3e33cf6e	0.17559597
21	0xbde6e1f5	-0.11273567
22	0xbe0247a7	-0.12722646
23	0x3c726916	0.014795562
24	0x3c97f5e0	0.01854986
25	0x3e129726	0.14315471
26	0xbd392a67	-0.045206454
27	0xbe0f7309	-0.14008726
28	0xbdbc682a	-0.09199555
29	0x3d9f4f11	0.077787526
30	0x3e8f9d32	0.28049618
31	0xbd9a120e	-0.07522975
32	0xbe03f98a	-0.1288816
33	0xbe0c0f19	-0.13677634
34	0xbc330c9b	-0.010928298
35	0x3e6baa7e	0.23014256
36	0xbda071c2	-0.078341976
37	0xbd9faa07	-0.07796102
38	0xbd486a90	-0.04892975
39	0xbd1a071e	-0.037604444
40	0x3e4003a0	0.18751383
41	0xbda441eb	-0.08020385
42	0xbdf0209f	-0.11724972
43	0xbd846ecd	-0.06466446
44	0x3d473e0b	0.048643153
45	0x3e2ebef0	0.17065024
46	0xbe10e8d1	-0.14151312
47	0x3c0ea5b9	0.008706504
48	0xbde72bd4	-0.112876564
49	0x3c10b87c	0.008833047
50	0x3d8d0bdd	0.06887028
51	0xbe05d8a1	-0.13070919
52	0xbd98a89a	-0.07454033
53	0xbd283466	-0.041065596
54	0x3dde9dd9	0.10869951
55	0x3c08745f	0.008328526
56	0xbdf4fcbe	-0.11962269
57	0xbe067d23	-0.13133673
58	0x3dd886a8	0.10572559
59	0x3d93d5a7	0.07218485
60	0xbd8ba48e	-0.06818496
61	0xbe881491	-0.2657819
62	0xbdccf657	-0.10007923
63	0x3e3386f8	0.17531955
64	0x3e17f44b	0.14839284
65	0xbdb8dff9	-0.090270944
66	0xbe56f3ea	-0.20991483
67	0xbd3a4231	-0.04547328
68	0x3cf402de	0.029786523
69	0x3e2444c0	0.16041851
70	0xbe146564	-0.14491802
71	0xbdeef601	-0.11668015
72	0xbdd0d14e	-0.10196172
73	0x3e576b11	0.21036936
74	0x3dbf2006	0.0933228
75	0xbe46c985	-0.19412811
76	0xbe4329d9	-0.19058932
77	0xbd8e2e1d	-0.06942389
78	0x3e59fe6a	0.21288458
79	0x3df07151	0.117403634

beta_0_1 f4 [14, 2]
0	0xbd8cb4ea	-0.06870444
1	0x3d90cd7c	0.07070443
2	0xbd81e2d2	-0.06342091
3	0x3d85fb65	0.0654209
4	0xbc85beed	-0.016326392
5	0x3c962139	0.018326389
6	0x3c721559	0.0147755975
7	0xbc5150be	-0.012775598
8	0x3d497734	0.049185947
9	0xbd4145e6	-0.0471858
10	0x3cd6af82	0.026206736
11	0xbcc64d33	-0.024206733
12	0xbb834431	-0.004005932
13	0x3bc4cd04	0.006005885
14	0xbd01e3f5	-0.031711537
15	0x3d0a1527	0.03371158
16	0xbbb48d98	-0.0055100434
17	0x3bf6169c	0.0075100195
18	0xbd0ada1e	-0.03389942
19	0x3d130b43	0.035899412
20	0xbd18795c	-0.037225112
21	0x3d20aa9e	0.039225213
22	0x3d205742	0.039145716
23	0xbd18261c	-0.03714572
24	0x3c75eb8a	0.01500977
25	0xbc5526c7	-0.0130097335
26	0xbd489779	-0.04897258
27	0x3d50c8a4	0.050972596
