train/fasterseg/arch_1.pt (torch_old, 3567 bytes, 8 tensors)

ratio_1_0 f4 [15, 5]
000000 1a fd 9c 3e 0d f8 af 3d 34 24 a7 3d 28 19 01 be
       0.3066185 0.08592234 0.08161202 -0.12607253
000010 d5 ce 8b be 13 48 bc 3e bb 08 1c 3e 5e 28 b6 3b
       -0.27306238 0.36773738 0.15237705 0.0055590114
000020 55 dc 3a be 49 bb 81 be e0 4b c6 3e a9 88 25 3e
       -0.18248112 -0.253382 0.38729763 0.16165413
000030 fb 22 79 3c 15 14 53 be 3f 77 89 be f8 47 b2 3e
       0.015206094 -0.2061313 -0.2684879 0.34820533
000040 ab db f5 3d 14 c1 ea 3c f6 20 25 be 45 57 83 be
       0.12004789 0.02865652 -0.16125855 -0.2565252
000050 24 2c c2 3e 53 b8 cc 3d 08 2a 47 bc da 0f 2e be
       0.37924302 0.099960946 -0.012156017 -0.16998234
000060 d3 36 7f be c3 93 d4 3e 08 da 03 3e 05 18 3e 3c
       -0.24923258 0.41518983 0.12876141 0.011602406
000070 c4 0b 5b be 8d ae 82 be b4 79 c5 3e 55 3c cf 3d
       -0.21391207 -0.25523797 0.38569415 0.10118929
000080 b1 b8 93 3b db 2b 05 be 6f a6 8f be 58 05 e7 3e
       0.004508101 -0.13005011 -0.28056666 0.45121264
000090 84 e2 e5 3d 85 b4 1e 3d b8 fe 3e be a9 17 a4 be
       0.11224845 0.038746376 -0.18651855 -0.320493
0000a0 ad a6 c4 3e 5e 46 11 3e 1c a9 9f 3c f1 ac 65 be
       0.38408414 0.14186999 0.019489817 -0.22429253
0000b0 be f1 83 be 81 6a b7 3e b7 d3 01 3e c9 1b 9d bc
       -0.25770372 0.35823444 0.12678419 -0.019178288
0000c0 15 09 03 be 97 81 78 be 82 c2 af 3e 8f 39 d4 3d
       -0.12796433 -0.24268185 0.34328085 0.10362541
0000d0 b1 8f aa bb 1d f4 06 be f9 26 66 be a4 8d a6 3e
       -0.0052051176 -0.1317906 -0.22475804 0.32529938
0000e0 d7 ce 20 3e d9 5b 2e bc 25 53 34 be d2 fd 57 be
       0.15703903 -0.010642015 -0.17609842 -0.21092919
0000f0 59 52 96 3e ae 9b 01 3e 8a d7 aa 3d 9b f2 1c be
       0.293597 0.12657043 0.08341892 -0.15326922
000100 a5 be 7c be f8 08 a5 3e 6e 63 a4 3d 68 59 d5 3c
       -0.246821 0.32233405 0.08026777 0.026043609
000110 04 64 0e be 19 b2 51 be 63 2b ae 3c 0f e9 57 bb
       -0.1390534 -0.20478095 0.021260923 -0.003294531
000120 89 d7 3d bd a4 83 67 bc bf f4 4c 3d
       -0.04634813 -0.014130507 0.050038096

beta_1_1 f4 [14, 2]
000000 c7 56 a6 bc 04 b9 b6 3c fd 41 1e bd 1d 73 26 3d
       -0.02030505 0.02230502 -0.03863715 0.040637124
000010 40 a9 1f bd 66 da 27 3d db 22 d9 bb 0f 56 0d 3c
       -0.03897977 0.040979765 -0.0066264695 0.008626475
000020 78 7b 43 bc 70 40 64 3c 22 d0 54 bd 48 01 5d 3d
       -0.011931293 0.013931379 -0.051956303 0.0539563
000030 f2 58 64 bd 1a 8a 6c 3d 62 ce 0f bd 87 ff 17 3d
       -0.055748887 0.05774889 -0.03510893 0.037108924
000040 12 64 c6 bb 8d f6 03 3c e3 00 1f bc 90 c5 3f 3c
       -0.00605441 0.008054388 -0.009704801 0.011704817
000050 cf 16 27 bd f0 47 2f 3d 15 f3 20 3c 7e 2e 00 bc
       -0.040793236 0.042793214 0.00982358 -0.007823585
000060 47 07 6b 3c 8d 42 4a bc be 22 a1 bd 4d 3b a5 3d
       0.014344997 -0.0123449685 -0.07867955 0.08067951

alpha_1_0 f4 [16, 5]
000000 39 de 85 bc 8f c8 29 3c 3f 14 bf bc d4 e2 97 3d
       -0.016341316 0.010362758 -0.023325084 0.07416311
000010 1b 9b 65 bc 68 e8 99 3c a1 73 81 bd 2b 9e 78 bd
       -0.014014031 0.018787578 -0.063208826 -0.060697716
000020 bc 86 3e 3d c1 24 bf 3c fa fe 75 3d 4a 31 3a 3c
       0.04651521 0.023332955 0.060057618 0.0113642905
000030 b0 22 ee bd a8 55 e7 bb a5 97 d9 3c c7 15 4f 3d
       -0.1162771 -0.0070597716 0.026561568 0.050557878
000040 b8 76 c2 bd c3 86 5d bd 6b 67 fb bc 30 c2 50 3d
       -0.094953 -0.054083597 -0.030688962 0.05096644
000050 f5 23 02 3e b6 c5 e7 bd 3c 6f d2 bd 9b 79 2c bb
       0.12709029 -0.11317007 -0.102751225 -0.00263176
000060 34 cd 49 3d 81 37 f3 3d cf db c0 bb b6 5c d1 bd
       0.049267963 0.11875821 -0.005885578 -0.10222761
000070 70 0d 87 bd 5d 4f 98 3c b3 65 84 3e a7 90 0b bd
       -0.0659436 0.01859253 0.2585884 -0.034073498
000080 48 0b ba bd 82 3a b4 bd 75 0c 86 bd b8 f5 2f 3e
       -0.09084183 -0.08800222 -0.06545345 0.17183578
000090 9e 2e c8 bd 47 7e e6 bc f7 cd b3 3a ff a7 64 bd
       -0.097745165 -0.028136386 0.0013717999 -0.055824276
0000a0 d4 bf 1c 3e 3f 57 da bd 79 6e e4 bd 89 2e 98 3b
       0.15307552 -0.10661172 -0.111538835 0.0046442193
0000b0 ce 82 12 3d 6b 14 f9 3d 89 27 a2 bd c3 5f 88 bc
       0.035769276 0.121620975 -0.07917697 -0.016647225
0000c0 fe 94 05 bd 38 fb c2 bc 39 cf c1 3c 64 de 7c bd
       -0.032612793 -0.023801431 0.023658382 -0.061735526
0000d0 2d 9f fe bd d6 57 3e 3d 42 da a6 3d 13 0a ac bc
       -0.12432704 0.046470486 0.08147098 -0.021000898
0000e0 bb 8c cf bd 38 65 14 be b6 ba 1f 3e 47 97 5b 3d
       -0.10134264 -0.14491737 0.15598568 0.053611066
0000f0 77 1e cb bd 74 d8 6c be 0a 21 11 be 80 56 59 3e
       -0.0991792 -0.23129445 -0.1417276 0.21224403
000100 be a1 fb 3d 21 19 c1 bd 3c 4b 27 be ed 57 6b bd
       0.12286709 -0.09428621 -0.16337293 -0.0574569
000110 10 d0 92 3d a7 1d 0c 3e 2f c5 16 be b4 a7 e8 bd
       0.07168591 0.13683186 -0.14723657 -0.11360112
000120 20 c1 f1 bd 83 4b 4f 3e 7c 69 cd 3d 6d a9 39 be
       -0.11804414 0.20243649 0.10029885 -0.18131037
000130 32 91 93 bd fb b2 92 bd bc 33 a3 3d 4e 08 0d 3e
       -0.07205428 -0.07163044 0.07968852 0.13772699

ratio_1_2 f4 [14, 5]
000000 2e 66 63 bb 63 bd 12 3c cc 90 bb bb 11 03 5c 3d
       -0.0034698355 0.008956286 -0.0057240482 0.05371386
000010 8f 1e 48 bd 38 a8 04 3d 5e ad 78 3c 17 a5 67 3a
       -0.048857268 0.03238699 0.015178053 0.0008836551
000020 40 c1 50 bd ac b3 d8 3b 5f e7 eb 3c d0 ef 9a bc
       -0.050965548 0.0066132154 0.02879685 -0.01891318
000030 7b b2 10 bb ff 1a 69 3d e4 30 02 bd b0 71 59 bc
       -0.002207904 0.05691051 -0.031784907 -0.013271734
000040 b2 b5 5b 3d 60 50 70 3d ee af 51 bd eb 39 16 bd
       0.053640075 0.0586704 -0.05119317 -0.03667633
000050 77 fe ec 3d df ea 5c 3d 88 2d 0c bd 28 0c 7e bd
       0.11571973 0.053934928 -0.03422311 -0.06202331
000060 b7 6b b1 bd 34 ad b1 3d aa d8 b9 3d 49 39 f0 bc
       -0.08663123 0.08675614 0.090745285 -0.02932419
000070 82 4c 41 bd 05 4b fc bd 1a 2a 44 3e bd 2d 44 3d
       -0.047192104 -0.12318996 0.19156685 0.047895182
000080 03 52 7c 3c 40 04 f1 bd 6d 9c 0d be 68 49 0a 3e
       0.0154004125 -0.11768389 -0.13829203 0.13504565
000090 05 db e4 3d b9 c0 67 3c 23 bd d3 bd 1b 78 22 be
       0.11174587 0.01414507 -0.10338809 -0.15866129
0000a0 d6 13 7e 3e 62 ae 75 3d c4 f1 d4 bc a6 d7 f4 bd
       0.24812254 0.059980758 -0.02599419 -0.11955194
0000b0 50 b2 00 be 45 61 95 3e 76 0b 2d 3e d1 fb 82 bd
       -0.12568021 0.29175773 0.16898903 -0.063956864
0000c0 ef a5 07 be 24 1a 65 be 6c 97 6a 3e 8f 72 1e 3e
       -0.13246892 -0.22373253 0.22909325 0.15473388
0000d0 8b 39 17 3c f2 57 c2 bd da b5 64 be 14 b0 86 3e
       0.009230028 -0.094894305 -0.22334996 0.26306212
0000e0 dd 9f 06 3e 78 58 7b 3c 7b da ad bd 99 48 81 be
       0.1314692 0.015340917 -0.084889375 -0.252507
0000f0 7a ff 69 3e 84 39 19 3e 17 3f 80 bc b8 fc 86 bd
       0.22851363 0.14963347 -0.015655084 -0.06591171
000100 5a 6a 70 be 53 89 aa 3e 3e e1 2c 3e 9c f9 01 bd
       -0.2347807 0.33307895 0.16882798 -0.031732187
000110 d0 b4 d4 bd 51 b3 91 be
       -0.1038605 -0.2845712

ratio_1_1 f4 [15, 5]
000000 15 f4 7e 3b 70 95 1d bb 82 0a cf 3c 9d b1 bb bb
       0.0038902808 -0.002404537 0.025273565 -0.0057279603
000010 9b b4 dd 3c 37 58 cc 38 6b a1 9c 37 fc 4d dd 3c
       0.027063658 9.743909e-05 1.8671815e-05 0.027014725
000020 8e 45 0e bd 0d c6 c6 39 e0 a0 b7 3b 38 5d f5 3c
       -0.0347343 0.00037913062 0.0056038946 0.029951677
000030 d0 29 d0 ba 76 e0 61 bd b6 1e 98 3c e1 41 f4 3c
       -0.0015881602 -0.055145703 0.018569332 0.02981657
000040 81 10 6c bb 58 e4 cf 3b ed 68 59 3c c0 eb 37 3b
       -0.003602058 0.0063443594 0.013269645 0.0028064102
000050 32 23 d6 3b 7b 98 34 3c f4 ad 85 bb d8 5a 37 3c
       0.0065349573 0.011022682 -0.0040795747 0.011191092
000060 d9 a4 dc bc 0e 91 d3 3b 6b ac 6b bd d2 88 4c 3d
       -0.026934074 0.006456501 -0.057537477 0.04993517
000070 fa 75 93 3d 4a 9a 7e bd c0 86 be 3d 04 0a d9 3c
       0.072002366 -0.06215886 0.09303045 0.026494034
000080 5d 0e 24 3d 37 38 98 bd 07 1b c6 bd 89 66 be 3d
       0.04005276 -0.07432597 -0.09673124 0.09296901
000090 63 59 f8 3c 2a 4d ca 3c 85 c4 fb bc 39 fd e4 bd
       0.03031606 0.024694998 -0.030733356 -0.11181111
0000a0 d2 81 00 3e 1d 07 c1 3d 0b f6 bb bd 71 64 a9 bd
       0.12549523 0.09425185 -0.09177788 -0.08271111
0000b0 65 e5 91 bd c0 d9 b8 3d 11 4b 3d 3d 70 75 da 3d
       -0.07123832 0.090259075 0.046214167 0.10666931
0000c0 27 30 a4 bd 77 ad 12 be 53 26 1a 3e 48 d8 d7 3d
       -0.08016997 -0.14323984 0.15053682 0.10539299
0000d0 17 85 d3 bc d9 7f f2 bd 4c 9f f4 bd f0 57 2c 3e
       -0.025820298 -0.11840791 -0.11944446 0.1683042
0000e0 82 e8 16 3e 4b b3 53 bb 90 65 03 be bc 54 36 be
       0.14737132 -0.0032302912 -0.12831712 -0.17805761
0000f0 a1 f2 52 3e ca ef 90 3d 86 29 64 bc e7 11 af bd
       0.20600368 0.07076986 -0.013925916 -0.085483365
000100 10 a0 16 be a4 87 46 3e 19 93 ff 3d d3 86 ea 3c
       -0.14709496 0.1938768 0.124792285 0.028628742
000110 99 5c e7 bd 01 79 2f be 53 4a 2f bd c5 d0 f3 bb
       -0.112969585 -0.17136003 -0.04279549 -0.0074406588
000120 16 76 8b 3b 82 dd 98 bb 00 86 f7 3c
       0.0042560203 -0.0046650777 0.030215263

alpha_1_2 f4 [14, 5]
000000 ac 34 1d 3d 5a ce 94 bc 8f a3 91 bd 94 47 91 3b
       0.03838031 -0.018164802 -0.071112745 0.0044335816
000010 4a ac 2f 3d 8d 6b 81 bc 6b 5a cd 3c 31 79 0c 3d
       0.042888917 -0.015798355 0.025067529 0.034295265
000020 cc 24 63 bd 92 35 43 3c 99 85 02 3d ec c4 23 3d
       -0.055455014 0.011914628 0.03186569 0.03998272
000030 45 41 25 bc 38 1c 92 bd 46 ff d1 3c af 9a f1 3b
       -0.010086362 -0.071342885 0.02563442 0.007373176
000040 7e 44 28 bd 3c 46 25 3c bf 11 a3 3b c8 16 17 3d
       -0.041080944 0.010087546 0.0049764807 0.03688696
000050 1f 08 b4 3c b2 99 74 ba f3 34 9c bc 71 a1 b5 bd
       0.021976529 -0.0009330764 -0.019068217 -0.08868683
000060 35 1c a8 3d d9 10 ef bb 6c 23 a0 38 4f 7f 5f 38
       0.08208505 -0.0072957096 7.6359924e-05 5.328591e-05
000070 cd 16 ad bc 42 60 06 3d f8 07 aa 3c 4b d7 87 3c
       -0.021129036 0.032806642 0.020755753 0.016582152
000080 14 15 8d 3c d8 80 21 3c 0e b5 6c bd b4 19 58 ba
       0.017221965 0.009857379 -0.057789855 -0.0008243576
000090 23 3d 57 3c 2a 13 10 3d fb 48 82 bd 1b c4 59 3c
       0.013137135 0.035174526 -0.06361576 0.013291384
0000a0 b3 1c 3a bc 61 6c c4 3c a3 2d 90 3c 13 76 76 bd
       -0.0113593815 0.02397746 0.017599886 -0.060171198
0000b0 a3 43 86 3c b4 c3 0b 3c d5 6c 37 bc c6 6f 42 bd
       0.016389674 0.008530546 -0.011195381 -0.047469877
0000c0 e3 cf 99 3c c8 5f c6 3c 69 fc 8a 3c 34 7c 8f bc
       0.018775886 0.024215594 0.016966062 -0.01751528
0000d0 8e 21 41 bd 4d 44 96 3c bf b5 0e 3d ac 91 d9 bc
       -0.04715114 0.018343115 0.034841295 -0.02655872
0000e0 05 8b 36 bd 59 de 43 3c 93 e1 53 ba bb 86 2c 3d
       -0.044566173 0.011954867 -0.00080826244 0.042120676
0000f0 e6 89 df bd 54 68 d9 bd 46 8e b1 bc bc 3e 33 bc
       -0.10914974 -0.10615602 -0.021674287 -0.01094025
000100 10 39 01 3e fe 54 df bd 50 2f 06 be c8 e2 22 bd
       0.12619424 -0.10904883 -0.13103986 -0.039767057
000110 7b 09 3c bb 69 27 22 3e
       -0.0028692174 0.15835346

beta_1_2 f4 [13, 2]
000000 21 6e 33 be 71 7a 35 3e e7 4d 9d be 04 54 9e 3e
       -0.1752248 0.17722489 -0.30723497 0.30923474
000010 8e 2a ed be a8 30 ee 3e 13 65 fb be 48 6b fc 3e
       -0.4632153 0.46521497 -0.4910055 0.493006
000020 af 36 15 bf c2 b9 15 3f f1 d5 e8 be 15 dc e9 3e
       -0.58286566 0.5848657 -0.45475724 0.45675722
000030 b4 e3 d5 be e4 e9 d6 3e 58 42 d4 be 7e 48 d5 3e
       -0.41775286 0.4197532 -0.41456866 0.4165687
000040 bb 74 fd be e9 7a fe 3e f2 ce f6 be 1a d5 f7 3e
       -0.4950312 0.49703148 -0.48204762 0.4840477
000050 a0 36 82 be c5 3c 83 3e 9f f5 30 be f2 01 33 3e
       -0.254323 0.256323 -0.17281197 0.17481211
000060 fb 62 8c 3f 76 21 8c bf
       1.0967706 -1.0947711

alpha_1_1 f4 [15, 5]
000000 8c 51 79 3c 2b 0d ed 3b 59 37 4d 3d 18 60 b6 bd
       0.015217196 0.0072342358 0.05010161 -0.08905047
000010 a2 55 be 3c dc ec 86 3c 6e ce 0d bd e8 c9 61 3c
       0.023234192 0.016470365 -0.034620695 0.013781048
000020 0f 40 4c 3a 24 bb ea b7 50 a7 5b bd d6 e0 38 3c
       0.0007791528 -2.7982118e-05 -0.05362636 0.011284074
000030 36 21 a7 3b ea 42 d2 bc c6 a4 84 3d 95 1a 04 3c
       0.0051003946 -0.025666673 0.064767405 0.008062978
000040 33 b8 c4 3c fc fb 72 bd ef 5f 92 3c 7e 33 ff 3c
       0.024013614 -0.059322342 0.01786801 0.031152483
000050 4f 95 a0 bc 70 71 0c bd 01 3c eb 3c c0 08 89 3b
       -0.019602446 -0.03428787 0.028715136 0.0041819513
000060 c6 6c 86 3c 63 ce 2c bd d4 62 2a bd c7 58 3d 3c
       0.01640929 -0.042189013 -0.041598156 0.011556811
000070 08 01 65 3b 7c 0e 83 3d 55 67 83 ba 87 74 59 bd
       0.0034943242 0.06399247 -0.0010025302 -0.053089645
000080 52 89 9b ba 13 64 86 bc f4 06 7e 3d 21 b8 27 bd
       -0.0011866486 -0.016405141 0.06201835 -0.040947083
000090 61 c3 16 bd 9b 94 0a 3c 0e 97 f3 3c af ea ef 3c
       -0.03680742 0.008458282 0.029735114 0.02928671
0000a0 5c 96 d4 bc c3 c0 7a bd 3c ab 85 3c 6c bb b0 3b
       -0.025950603 -0.06121899 0.016317002 0.005393436
0000b0 36 56 16 3d 7c ce 17 bd 0b 8b 62 bd 46 89 0f 3d
       0.03670331 -0.037062153 -0.055308383 0.035043024
0000c0 0b e3 33 bd 7d 36 75 3d 4a 09 a8 bd ad 7e 94 bd
       -0.043917697 0.059866417 -0.08204897 -0.07250724
0000d0 2f 7b a8 bc 4d ff 55 3d 04 52 79 3d 6d ea b5 bd
       -0.020566551 0.052245427 0.06086923 -0.08882604
0000e0 f3 b3 02 be eb aa 12 bd 5b 48 c5 3b d6 18 0f 3e
       -0.12763958 -0.03580753 0.0060205883 0.13974318
0000f0 34 84 2b be 8c a8 28 be 1f 69 84 bd 61 65 85 3d
       -0.1674965 -0.16470546 -0.06465363 0.06513477
000100 9d 81 3a 3e d5 8a 4b be 4c 0e 2c be 34 57 5f bd
       0.18213506 -0.19877179 -0.16802329 -0.054526523
000110 88 9b c1 3c 00 3c 6a 3e b0 88 3c be 62 ee 2c be
       0.023633733 0.2287445 -0.18411517 -0.16887811
000120 93 f2 24 be 00 ec 8f 3d 81 a7 5a 3e
       -0.1610816 0.07027435 0.2135296
